SuperResolution/src/main/assets/quicksrnetsmall-quicksrnetsmall-float.tflite (tflite, 136884 bytes, 8 tensors)

arith.constant f4 [48]
000000 22 bb b0 39 17 19 05 b9 dd d4 d4 37 fb 17 30 3a
       0.0003370876 -0.00012693215 2.5371492e-05 0.00067174406
000010 d5 90 24 39 d1 aa 14 ba e2 e8 09 ba 66 39 d4 39
       0.00015694213 -0.00056712056 -0.00052608375 0.00040478556
000020 df 2e e9 b9 1a 49 90 ba df 5b 75 ba 7f 82 b6 b9
       -0.00044476145 -0.0011008114 -0.0009359698 -0.00034810972
000030 24 99 a9 b9 a4 06 61 ba ed 11 0b ba e6 2b 61 39
       -0.0003234829 -0.00085840584 -0.00053051003 0.00021474026
000040 a1 98 88 3a e5 7c 34 3a a5 8d 8c 39 1d 4d 41 b9
       0.0010421464 0.0006885066 0.00026808414 -0.00018434641
000050 cc 52 9b 3a 32 a1 44 3a 16 8c 39 39 fb 19 0b b9
       0.0011850237 0.00075008266 0.00017695161 -0.00013265751
000060 3b fb 01 3a a8 7e 02 39 0a 7c 73 b9 69 cd 3e ba
       0.0004958396 0.00012444949 -0.00023220494 -0.00072785333
000070 f5 64 7c b9 0b 22 c7 b9 48 44 2f ba e1 02 8b ba
       -0.00024070202 -0.00037981602 -0.0006685895 -0.0010605716
000080 77 7f 61 3a 1e e2 a4 39 2d e0 ab 37 5d 16 07 3a
       0.00086020626 0.00031448988 2.0489178e-05 0.00051531737
000090 b2 cd d6 39 d9 e9 a7 b9 83 40 de b9 6b 0b 86 b9
       0.00040970516 -0.00032026952 -0.00042391205 -0.0002556698
0000a0 0e 31 13 38 21 b4 9f b9 9d 91 32 ba ee bf 96 b9
       3.5093217e-05 -0.0003046105 -0.0006811859 -0.00028753228
0000b0 a8 18 ba 39 09 27 c6 b8 ed b2 e0 b8 b1 7b d8 38
       0.00035495055 -9.4486466e-05 -0.0001071448 0.00010322722

arith.constant1 f4 [32]
000000 a1 a9 ad 39 cb 51 c6 bc 6f 00 0d bc 11 56 53 3b
       0.00033123515 -0.024208924 -0.00860606 0.0032247344
000010 bf ab ad bc 34 ca e6 bc ae f7 47 bd 92 63 df bc
       -0.021200059 -0.02817259 -0.04882019 -0.027269159
000020 03 a9 05 3c 85 09 10 bd 9c fa 6a 3c 09 43 ad bc
       0.008157971 -0.03516533 0.0143419765 -0.021150129
000030 0e 33 cf bc f6 31 97 bc 51 0a b1 bc a9 09 09 bd
       -0.0252929 -0.01845644 -0.021611365 -0.03345648
000040 53 fa ca bc 45 b0 b5 bc 7c f6 f2 bc f8 b1 05 3b
       -0.024777567 -0.022178778 -0.029658549 0.0020400267
000050 c0 28 07 bd d9 6a 8a bc 0d 3f 46 39 3a 6b 32 3b
       -0.032997847 -0.016896652 0.0001890624 0.0027224557
000060 bc 2c 49 3a a0 9f b7 bc 3e f3 1a 3c e5 31 0d bd
       0.00076742074 -0.022414982 0.0094574075 -0.03447141
000070 96 b3 af b9 a8 b1 0e bd 8b a6 02 bd 2c 44 0c 3c
       -0.00033512403 -0.034837395 -0.03189711 0.008561175

arith.constant2 f4 [32]
000000 41 55 c0 bc dc 57 38 bd 82 a5 a7 bc 1c 40 35 3c
       -0.023478152 -0.045005664 -0.020464662 0.011062648
000010 09 31 c1 bc 82 d6 ae bd a5 51 99 bd ab 33 10 3d
       -0.023582952 -0.08537008 -0.074862756 0.035205524
000020 e6 c2 c1 3b 56 23 a3 bc 38 e5 5a 3d 02 11 49 3d
       0.0059131263 -0.01991431 0.053441256 0.049088486
000030 0f aa 72 bc 7f 88 9f 3d e1 c3 74 3c eb a1 7c bd
       -0.014811053 0.077897064 0.014939279 -0.061677855
000040 22 40 a5 bc fc 2e 4d bd 53 13 4d 3d 8b f3 0f bd
       -0.020172182 -0.050093636 0.050067257 -0.03514437
000050 3a 5f dd 3c db 03 32 3d b7 99 ca bd 78 15 32 3d
       0.027022947 0.043460708 -0.098926 0.043477505
000060 30 4b 7b 3d 53 b8 0c 3d 10 50 0c 3d 64 d7 f1 3d
       0.061351 0.034355473 0.03425604 0.118086606
000070 9d b7 97 bc 69 c0 6f bd 6b 47 13 be 42 c5 64 3a
       -0.01852017 -0.058533106 -0.14382713 0.00087269035

arith.constant3 f4 [48, 3, 3, 32]
000000 bf 35 25 3e c4 b4 bf bc ac 29 12 bc 19 c8 c1 3c
       0.16133784 -0.023401625 -0.008921068 0.023654984
000010 9d 7c 65 3d 8b d5 5a 3d 4a d7 cb bd 71 bb 2e 3c
       0.056027044 0.053426307 -0.099531725 0.010664807
000020 6c d3 5a bd 25 81 04 3c e9 5e dc bd ef fe 0d bd
       -0.053424284 0.008087431 -0.1076029 -0.03466695
000030 68 ee e4 bb d7 7b 27 bd 46 f9 22 ba f8 82 8a 3d
       -0.006986428 -0.040889587 -0.0006216954 0.067632616
000040 9f 89 04 bc 3c 5c 9f bc 74 32 54 bd c9 58 03 3d
       -0.008089452 -0.01945316 -0.05180593 0.032067094
000050 ab d0 88 bb 7a 0d 82 bd 59 4f 81 bd ab 4b 2e 3d
       -0.004175266 -0.06350227 -0.063139625 0.04255263
000060 c4 aa 9f 3d 6e 6e 05 bc fb ef 24 bd c4 76 87 3c
       0.07796243 -0.008144004 -0.040267926 0.016536124
000070 43 35 2d 3d f0 b2 5b bb d8 a4 ab 3c 6d 61 85 3d
       0.042287122 -0.0033523403 0.020952627 0.06512723
000080 34 cf e6 3d 44 64 eb 3c 8d fb a0 bc 97 43 f8 bd
       0.112699896 0.028734334 -0.019651199 -0.12122267
000090 00 57 73 3e 97 04 85 bb 22 2c 11 bc 8c 8c ae bb
       0.23763657 -0.004059385 -0.00886062 -0.005326813
0000a0 38 4e a9 bd d9 75 38 bb 73 1c 13 be 8c 08 e6 3d
       -0.08266872 -0.0028146415 -0.14366321 0.11232099
0000b0 a4 40 43 bd c2 73 87 be 96 a7 20 bd ac 1c 43 bc
       -0.047669068 -0.26455504 -0.039222322 -0.011908691
0000c0 bd f1 79 3d 54 b2 28 3e 7d 4b 5d bd 5b 36 93 3d
       0.061021555 0.16474277 -0.05402707 0.07188102
0000d0 0d 5f 42 3c a8 1f 21 3d 97 fa 5b 3d 6c e9 1c 3c
       0.011863482 0.03933683 0.053705778 0.0095771365
0000e0 dc db 88 bd f7 1b a3 bc 2c 86 39 bd 04 96 ca 3c
       -0.0668256 -0.019910796 -0.045293972 0.024729736
0000f0 7f cd 84 3d c2 70 84 bd a1 01 ae 3c a7 46 37 3e
       0.06484508 -0.06466819 0.021241011 0.17898045
000100 2c d1 58 bd 46 b1 58 3c 5b 18 0d 3c 6c b6 01 3d
       -0.052933857 0.013225859 0.008611764 0.03166811
000110 15 ed e8 ba a2 9a 93 3b 11 b7 09 bc cd f7 d4 ba
       -0.0017770851 0.0045045177 -0.008405463 -0.0016248167
000120 56 11 6d 3d cd bf e0 3b c2 1f 5b 3c 55 7f 57 bc
       0.05787786 0.006858802 0.013374271 -0.013152917
000130 b4 76 87 3a e6 b7 2f 3c ed c6 a9 3d 3e 9a 4b 3c
       0.0010335059 0.010724997 0.08289895 0.012426911
000140 35 70 65 3b cf 8a a5 bc 4a 1f 33 3c bd 1a e5 3b
       0.0035009508 -0.02020779 0.010932753 0.006991713
000150 be 25 82 bc 7c 81 34 bc 0d 76 93 bc 6f 8b 7b bc
       -0.015887138 -0.0110172 -0.018000627 -0.015353068
000160 5c f5 d7 3c 8e a0 e9 3b 9e 02 c7 bc a9 42 bd 39
       0.026362114 0.0071297353 -0.02429324 0.00036098555
000170 8c 50 da bc be 22 3e 3c e4 1f 76 bc da 89 b1 bc
       -0.026649736 0.011604963 -0.015022252 -0.021672178
000180 ce 75 96 3d c6 8c dd 3c fb 49 04 3d a9 ec 6c bb
       0.07346688 0.027044665 0.032297116 -0.0036151803
000190 b1 50 5c bd 19 4f b0 3d 5c d5 8b bd e9 ba dd 3b
       -0.05378789 0.08608837 -0.068278044 0.006766666
0001a0 20 8d 2e be f2 a6 ca bb 59 37 10 be 20 4a 94 bc
       -0.17046022 -0.006184452 -0.14083613 -0.018101752
0001b0 bd 3f 6b bd 4f ec 3c 3d 52 71 4d 3c e7 4a 02 be
       -0.057433832 0.0461238 0.012539225 -0.12723885
0001c0 ca 25 94 3d eb 67 d0 bc 89 c7 67 3e d7 d5 82 bc
       0.0723377 -0.025440177 0.2263471 -0.015971107
0001d0 95 a1 53 3c 61 a4 32 be 73 89 ce bd 84 33 d8 bc
       0.012916942 -0.17445518 -0.1008481 -0.026391752
0001e0 78 a6 07 3e b9 3a 33 3e 99 71 2c 3e 7d 06 8f bd
       0.13247097 0.1750287 0.16840209 -0.069836594
0001f0 de 53 2c 3e 48 6b 81 3d 59 49 8e bd 9c 97 31 bb
       0.16828868 0.063192904 -0.06947584 -0.0027098423
000200 9e f7 6a 3f 59 e3 46 bd ea b2 bb bc b2 39 6f 3c
       0.91784084 -0.04855666 -0.022912461 0.014601158
000210 1a 49 a4 bd 7b 76 de 3c cf 87 1d bc 6a 1e a5 bc
       -0.080217555 0.027156105 -0.009614899 -0.020156104
000220 39 8c 67 bd df ac 02 3d db 51 56 3e 71 b7 8d bd
       -0.05653021 0.031903144 0.20929663 -0.06919754
000230 a3 88 a1 3e 63 cb fa 3d 8f 25 66 bd bb 99 34 3b
       0.31549558 0.12245824 -0.056188162 0.002755745
000240 a2 57 cf bc 9e 90 22 3e 8a 5d 83 3e 39 e4 01 bd
       -0.025310341 0.1587548 0.25657302 -0.03171179
000250 4f 63 2b be b3 33 81 3d 9a 8a c8 3d 69 0c af bd
       -0.16737102 0.06308689 0.09792061 -0.08547289
000260 73 3f 05 be 84 04 af bd ac d2 c5 bd f8 02 42 be
       -0.13012485 -0.08545783 -0.09659323 -0.18946445
000270 a2 17 8e bd 02 df f1 bd ed 0c 8e bc 2c 6c d7 3d
       -0.06938101 -0.118101135 -0.017340148 0.10518679
000280 46 0f 8a bd f3 09 82 bb b1 9d af 3c 1f 51 a2 3c
       -0.067411944 -0.003968471 0.021437498 0.019814072
000290 6c af f8 ba 67 e8 b4 bb 6f 3a 7d bb 62 eb 10 3c
       -0.0018973178 -0.0055208686 -0.0038639565 0.008845182
0002a0 9a 83 0b 3e 4e 40 a2 3c f5 51 83 3d 26 0d fa ba
       0.13624421 0.019806053 0.064121164 -0.0019077405
0002b0 5d af 1c bd 4e 7b 9b bb 61 a6 a3 3c 32 1d 61 bb
       -0.038253177 -0.0047449237 0.019976797 -0.0034349677
0002c0 fd c6 9d bc 61 f9 81 bc 2c dc 85 3c 3e 75 b5 3c
       -0.019259924 -0.015865983 0.016340338 0.022150632
0002d0 7e 65 03 be 71 de 97 bc 85 e9 32 bd 7c 20 89 bc
       -0.12831685 -0.018538686 -0.043679733 -0.016739123
0002e0 23 57 62 3d 60 b5 8b 3c 92 c3 c2 3c 3c 3d 88 bc
       0.05525888 0.01705426 0.023774896 -0.016630761
0002f0 dd a8 64 bd 7f 08 24 3b 9f 54 83 ba 55 51 2a be
       -0.055825103 0.0025029478 -0.0010019726 -0.16632588
000300 30 ff 28 bd 0a 83 98 bb 2a 95 f0 3b bd 82 20 bb
       -0.04125899 -0.004654293 0.0073420005 -0.0024491989
000310 9a 80 8b 3c 04 e6 80 3c a0 87 ec 3b 01 91 9b bb
       0.017029095 0.01573468 0.007218316 -0.0047475104
000320 24 8b 2b 3c cf f1 96 bc 67 ec 6d 3c f0 4f 58 bb
       0.010470185 -0.01842585 0.014521695 -0.003300663
000330 10 1f ae 3c 88 a0 65 bc d2 e3 2e bb 65 07 c9 3b
       0.021255046 -0.014015324 -0.0026686084 0.0061349147
000340 17 85 0a bd b4 01 ca 3b ab 57 f6 bc 46 1c 1b bd
       -0.03381833 0.006164754 -0.0300711 -0.03786876
000350 23 e7 13 3b 31 40 4c bb 76 90 d0 3b 9d 3f 19 3d
       0.0022568188 -0.003116619 0.0063648773 0.037414182
000360 ff d0 26 bb bb 0e eb bc f0 e7 63 bc 23 54 dd 3c
       -0.0025454161 -0.028693547 -0.013910279 0.027017659
000370 67 8b 07 bd 09 e0 dd bb 73 4e 22 3d 26 40 e3 3c
       -0.03309193 -0.006771092 0.039625596 0.02774055
000380 80 24 03 bd dc 18 ef bb 0c 36 80 bc 07 92 b6 bc
       -0.03201723 -0.0072966646 -0.015650772 -0.022286428
000390 fc 75 05 3d f0 77 64 3b ed 34 b4 3a 78 d0 44 3c
       0.03258322 0.0034861527 0.0013748683 0.012012593
0003a0 3a 90 c8 3d bf a9 12 3e 3b aa 4e 3d 7a 4f 2d bc
       0.09793134 0.14322565 0.050455313 -0.010578031
0003b0 e9 45 b9 bc 6b 87 5b bd 89 22 b8 bb 18 16 93 3a
       -0.022616344 -0.05359594 -0.0056193513 0.0011221794
0003c0 68 84 41 3c 16 37 27 3c b0 01 19 bd f4 63 50 bc
       0.011811353 0.010206005 -0.037355125 -0.012719143
0003d0 85 66 ef bb a9 d9 0c 36 8a f9 48 bc 12 55 9e 3d
       -0.0073059225 2.098832e-06 -0.012266526 0.077310696
0003e0 be ef 1c 3c 59 bb 01 bc 03 c5 f5 bc 55 18 a0 ba
       0.009578643 -0.007918202 -0.03000117 -0.0012214283
0003f0 90 0d b5 bd 8e 21 a1 3c 1c da 4f 3d 80 d0 9e bd
       -0.088404775 0.01966932 0.050745115 -0.07754612

arith.constant4 f4 [32, 3, 3, 32]
000000 60 c0 53 3c fc ee e3 bc 01 ed 30 bb e1 f1 25 3b
       0.012924284 -0.027823918 -0.0026996734 0.0025321173
000010 87 17 0c 3a 4f 87 8c 3b c3 b8 0d bb 80 d4 ee bb
       0.0005344082 0.004288591 -0.002162502 -0.0072885156
000020 3a 9b 52 3b 2f 98 48 ba 66 fa 24 bb b3 cc 0b 3c
       0.003213598 -0.00076520717 -0.0025173663 0.008532691
000030 53 71 84 ba d1 7f 65 bc f7 90 b3 38 70 8c be 39
       -0.0010104574 -0.014007525 8.562387e-05 0.00036344258
000040 cb 61 2f 3b dc e1 99 3c f0 de 09 3c 84 4a 83 38
       0.002676117 0.018784456 0.008414969 6.2604464e-05
000050 3b 7e 20 ba 35 e8 06 bc 11 d6 ed 3a a7 4f 1d 3a
       -0.00061223254 -0.008234073 0.0018145462 0.0006000944
000060 54 c4 8e 3a 85 aa bf 3a 61 f0 6b ba 76 41 0f ba
       0.001089225 0.0014622962 -0.0009000358 -0.00054647715
000070 e5 f8 96 3b 91 32 9f ba 4d 6e 15 bb 06 ca e5 ba
       0.0046073073 -0.0012145807 -0.002280134 -0.0017531521
000080 3a d0 06 bc 03 2b 18 3d 15 9b 0c 3b f4 38 5a bb
       -0.008228356 0.037150394 0.002145474 -0.0033298107
000090 f7 79 50 bb ff 1e 00 3c f1 0c 80 3b 07 c4 7c bc
       -0.0031810978 0.00781989 0.0039077927 -0.015427596
0000a0 55 5d 86 3c d9 8c 61 3a 47 85 a8 bb 5f 70 b6 3b
       0.016401926 0.0008604057 -0.005142841 0.005567595
0000b0 71 7a c2 bc 87 21 21 bc a9 1a ce ba 19 59 bd ba
       -0.023740025 -0.009834654 -0.0015724498 -0.0014446109
0000c0 79 a2 87 3b 88 3b c6 3c 50 35 bb 3c ed 3f 3e ba
       0.0041392413 0.024198309 0.02285257 -0.00072574505
0000d0 dc ca 0f bc 92 d2 0d 3c dc af b3 3b 53 01 12 3c
       -0.008776393 0.008656161 0.0054836106 0.0089114485
0000e0 6d 39 09 bc e1 fe 71 3b 3b 8b cb bb 87 ad 42 bb
       -0.008375508 0.0036925601 -0.006211666 -0.002970548
0000f0 8d 8a 17 bc a6 4d bb b9 e4 cc a2 bb 4e bd aa 3b
       -0.009249342 -0.00035725272 -0.0049682725 0.005210555
000100 1b 5c 95 bb bf 2d 62 3c 27 fa 8f ba 0d b0 ea 3a
       -0.004558099 0.013804852 -0.0010984585 0.001790525
000110 30 ab 21 3b 58 8f 4d 3a dd ef b6 bb 21 cf 63 bc
       0.0024668686 0.0007841489 -0.005582793 -0.013904364
000120 10 57 80 bb 75 1e d8 3a e8 32 e1 3b 33 99 2a bb
       -0.0039166287 0.0016488569 0.0068725236 -0.0026031255
000130 07 b9 8c 3a 65 8b 2b bb 1e b3 4b 3b 9e 8e c1 bb
       0.0010736295 -0.0026175615 0.0031082104 -0.005906894
000140 2a 52 97 bb bd 88 86 3c 2a 15 19 3c fb 7f 8f ba
       -0.004617949 0.016422624 0.009343425 -0.0010948175
000150 86 a9 fe bb 40 88 1c bc 8e 15 7c 3b cd 82 2f bc
       -0.0077716736 -0.009553969 0.0038464996 -0.010712338
000160 3d 0b c8 b9 5c 3b 35 ba 2a 7a 86 3b 86 39 54 3a
       -0.00038155346 -0.0006913447 0.0041039186 0.000809573
000170 ff 9e 70 bb 22 50 c9 ba 5b aa d2 bb e9 be 45 38
       -0.0036715863 -0.0015358964 -0.0064289994 4.714626e-05
000180 52 16 5a 3c 94 93 91 bc cd 7a 82 ba db cd 90 bb
       0.013310986 -0.017770566 -0.000995481 -0.004419071
000190 91 a8 02 b9 db 71 0a 3c ab c0 bf ba 23 97 2e 3b
       -0.00012460562 0.008449997 -0.0014629563 0.0026640377
0001a0 dc 4d 28 3d d0 a6 71 3a a5 87 09 bc 37 d2 c0 bb
       0.041089877 0.00092182774 -0.008394157 -0.0058844346
0001b0 69 fe 1a bd 0a d4 14 bb ae fc d0 3a 24 3d 09 bb
       -0.03784028 -0.0022709393 0.0015944445 -0.0020940984
0001c0 c6 98 a8 bb 94 59 c5 ba 7e 08 bf 3b f0 c9 a5 3a
       -0.005145165 -0.0015056604 0.00582987 0.0012648683
0001d0 ee e5 e2 bb 92 51 0b bc 7d f7 8b ba 65 55 3e bb
       -0.0069243824 -0.008503335 -0.0010678616 -0.0029042598
0001e0 39 3c 94 3b a4 1e 51 bb 0f b3 a0 bb 04 2b c3 bb
       0.0045237807 -0.0031909132 -0.004904158 -0.0059560556
0001f0 1e db de 3b 57 46 1d ba 99 08 a7 bb fb f0 7a 3b
       0.006801023 -0.0005999556 -0.0050974605 0.0038290608
000200 ab 45 7a 3f a0 fa 4b bc 90 41 21 3a a3 7e f4 3a
       0.97762555 -0.01244989 0.0006151432 0.0018653463
000210 a1 c2 d0 3b fd 58 84 bc f3 69 c8 bb 3d d3 10 3c
       0.006370858 -0.016155714 -0.0061161458 0.008839426
000220 77 a2 7a bd 44 e9 0e 3a e6 3e 56 bc e6 91 9b 3b
       -0.061190095 0.00054516294 -0.01307652 0.004747617
000230 bb d6 de 3d 88 48 b8 3b 18 5e d1 ba 04 77 77 3c
       0.108808 0.005623881 -0.0015973477 0.015104059
000240 b4 54 a3 bc 70 66 3a 3c 48 9b 0f bc ba d2 b1 3b
       -0.01993785 0.011376962 -0.008765049 0.005426732
000250 36 dd d7 3b 33 d8 09 bd 62 a9 99 bb fa ab 7c bc
       0.0065876497 -0.03365345 -0.0046893815 -0.015421862
000260 45 ad cf 3b 77 9c 2c bc 61 ee 82 3b 29 eb 6b 3c
       0.006337794 -0.010535351 0.003995702 0.014399328
000270 b2 70 7b 3c 9d aa 93 bb 35 5b 35 3b 47 27 4f 3c
       0.015346693 -0.0045064227 0.0027672772 0.012643642
000280 8e 05 58 3c 02 f4 25 bc 9e cb 9c bb fe a2 3d bb
       0.013184918 -0.010128977 -0.0047850152 -0.0028936262
000290 75 d7 2d 3b 37 1d 53 3b 19 f8 d4 ba df 28 97 3b
       0.0026526127 0.0032213458 -0.0016248255 0.0046130265
0002a0 02 b6 2d 3d a3 b4 81 bb 68 57 47 b9 4e 72 69 bb
       0.042409904 -0.003958301 -0.0001901068 -0.003562111
0002b0 c3 2d f0 bc 20 7e d9 bb a8 89 b1 bb 97 ff 31 3c
       -0.029318696 -0.0066373497 -0.005418021 0.01086416
0002c0 b0 0d d9 39 ff 06 12 bb 9c 0d 07 bb 8d 6d f9 3a
       0.00041399663 -0.0022282002 -0.0020607477 0.0019029841
0002d0 90 2d 55 bc 79 86 84 3c 6e b2 44 3a 05 4d 52 3c
       -0.013011351 0.016177403 0.0007503395 0.012835746
0002e0 0d 59 20 3c 8d df ab 3b 88 d8 3d bb c8 24 b0 bb
       0.009786856 0.005245155 -0.0028968174 -0.0053754784
0002f0 19 cd 39 bc 2e d3 a0 3b 9e 80 94 3b f3 fa 01 bb
       -0.011340403 0.004907987 0.004531934 -0.0019833415
000300 52 70 5e bc da 58 b7 3c 2f 36 39 3c de d6 28 3a
       -0.013576584 0.022381235 0.011304422 0.0006440709
000310 c3 1a 56 bb ba 5f 0c bb e1 5d 01 bb 63 37 33 3b
       -0.003266976 -0.0021419362 -0.0019739794 0.0027346245
000320 69 70 54 bb 7b 7e 1c bb d4 4f d2 3a 80 c2 5d 3b
       -0.0032415634 -0.00238791 0.0016045519 0.0033837855
000330 2a e0 7e bc 3b 7c 58 bc 1c 5e ca 3a b4 c9 7e ba
       -0.015556375 -0.013213213 0.0015439424 -0.0009719387
000340 a3 df a2 3b 1b 9f 63 bb 66 6c 32 bb 21 f1 88 bb
       0.004970507 -0.0034732285 -0.0027225255 -0.0041791354
000350 b3 c9 8a 38 c7 7e 7e bb e9 0f a8 bb 23 d6 fd ba
       6.617922e-05 -0.003883289 -0.0051288498 -0.0019366186
000360 ad 7a 33 3b cd a6 d3 bb a5 c4 0b 3b 80 33 2b bb
       0.0027386353 -0.006459093 0.0021326926 -0.0026123226
000370 1c 56 18 3c 14 8f e3 b9 1d b0 b7 3a a3 1d a7 bb
       0.009297874 -0.00043403415 0.0014014278 -0.0050999685
000380 fb 4b cc 3c 05 0a a1 3b 3f 23 95 bc 1f ae ca 3a
       0.024938574 0.0049145245 -0.018205283 0.0015463269
000390 78 b2 a1 bb 9f a1 6e 3a 0c af 19 bb 96 78 62 3b
       -0.004934605 0.0009103063 -0.0023450283 0.0034556738
0003a0 5b cb 29 3c 45 1c 5e bb 96 21 91 3b 09 dc 36 bc
       0.010363425 -0.0033891362 0.0044290526 -0.011160859
0003b0 9f bc df bc d9 da 04 bb 4a bb cc 39 45 ce 2a bc
       -0.027311621 -0.0020272045 0.00039049453 -0.010425155
0003c0 da 32 b3 3c 29 67 fb bb 91 68 25 3b db ea 23 bc
       0.021874834 -0.0076722098 0.0025239328 -0.010004724
0003d0 20 cd 8a b8 17 e5 f0 3c e9 0c 96 3b 8e 94 53 3b
       -6.61856e-05 0.029406114 0.0045791757 0.003228459
0003e0 0d 33 df bb 75 2f 5a 3c 25 ab 15 3b 48 9b c9 bb
       -0.0068115056 0.013316979 0.0022837606 -0.006152544
0003f0 00 d7 04 3c ce c7 f5 ba c8 09 a3 b9 a7 30 f9 bb
       0.008107901 -0.0018751563 -0.0003109707 -0.0076046768

arith.constant5 f4 [32, 3, 3, 32]
000000 0d 3d 68 3b 04 af 2a 3c ee 50 d6 bb 93 39 80 ba
       0.003543678 0.010417704 -0.0065404093 -0.0009782783
000010 10 6d 6e bb 84 74 9b bb 23 2c 26 ba 91 bb 23 3b
       -0.0036380924 -0.0047441144 -0.00063389743 0.0024983624
000020 72 e1 2a bc fb 66 a4 3a 9b 3d b9 bc 75 68 d5 bb
       -0.010429727 0.0012542898 -0.022612384 -0.0065126964
000030 20 8f d9 bc 5f 19 b1 bb be 6e dc 39 22 ca 15 bc
       -0.026557505 -0.005404636 0.0004204418 -0.0091424305
000040 da 3b d6 ba 51 df 8c b9 1e 73 f0 3b cf 4e 86 3b
       -0.0016344741 -0.00026869265 0.007337942 0.00409875
000050 b5 50 b3 3c 1c 5a 3e 3c b8 cf a5 3b 28 bf 1b 3c
       0.02188907 0.011618163 0.0050601624 0.009506024
000060 e2 87 a9 bc 44 56 36 3b 94 f4 f6 ba 55 85 2e bb
       -0.020694677 0.0027822414 -0.00188412 -0.0026629765
000070 a9 01 a2 3a c6 7d c7 3b 00 9c 43 bc 54 60 95 3b
       0.0012360114 0.0060879914 -0.011939049 0.0045586023
000080 f1 61 f3 bc eb 87 23 bc d4 31 db 3c 42 ef 87 3b
       -0.029709788 -0.009981136 0.026757158 0.004148395
000090 8f 02 6a bc 59 e7 55 bb 49 0f 71 bb 52 74 56 bb
       -0.014282837 -0.0032639115 -0.0036782792 -0.003272314
0000a0 27 72 27 3d aa 12 75 3a 8b 0b a0 bc e2 80 29 3c
       0.04088035 0.00093487895 -0.019536754 0.010345669
0000b0 6c f2 26 bc 39 51 02 bc 73 87 02 bc 01 7c 3d bb
       -0.010189634 -0.007953935 -0.007966864 -0.0028913023
0000c0 8a 45 ce 3b 44 43 1a 3c 57 31 89 3c da d1 1e bc
       0.006294911 0.009415451 0.01674716 -0.009693587
0000d0 08 0f d1 bc 91 b0 71 3c 6c 1b 6f 3c f6 6a c0 bb
       -0.025519863 0.014751569 0.01459394 -0.0058721257
0000e0 d3 16 1f 3c 97 4a 42 3c c4 75 c4 ba b0 e7 2f bc
       0.009710032 0.011858604 -0.001498871 -0.010736391
0000f0 23 c3 96 bc 6a 63 57 3b db 55 a8 3a cf 89 07 bb
       -0.018403595 0.0032865652 0.001284297 -0.0020681506
000100 c3 0f 46 3d e1 a5 e3 bb 31 fd af bc c0 34 b7 bb
       0.048354875 -0.0069472645 -0.021483036 -0.005591005
000110 12 09 8e 3a 8f 14 c1 ba de 0e 50 3a 92 da c1 3b
       0.0010836443 -0.0014730858 0.00079367857 0.005915948
000120 24 98 8f bc 1e 77 d7 bb 64 d0 71 bb 40 8a b7 3b
       -0.017528601 -0.006575479 -0.0036897892 0.0056011975
000130 50 b1 76 bc 79 4d 96 b9 b2 65 c3 3b c5 8e 09 bc
       -0.015056923 -0.0002866795 0.0059630508 -0.008395855
000140 54 f2 a3 39 35 ba 0e 3b af 58 88 ba ef 10 3e bc
       0.0003127033 0.0021778469 -0.0010402406 -0.011600717
000150 d3 dd 11 bd 84 51 86 3c 69 59 87 bb a2 39 11 3b
       -0.03561194 0.016396292 -0.0041305316 0.0022159596
000160 4e 8a 1e bb 25 64 e1 bb ad 92 9c 3a 6c df 13 3b
       -0.0024191323 -0.0068783932 0.0011945568 0.002256359
000170 4e 93 81 ba 9d 9e 99 3a d5 bb f3 3a c8 30 2f bb
       -0.0009885819 0.0011720244 0.0018595407 -0.0026731957
000180 60 81 92 3d 88 11 a3 bc fb a8 ed 3c 09 3e 8f bb
       0.071535826 -0.01990582 0.02901124 -0.004371409
000190 fc 77 3f bb b6 5c 0d 3c 7f f0 22 3c 4e 01 a4 bb
       -0.0029215803 0.008628061 0.009945034 -0.0050050383
0001a0 7f 66 66 ba c7 f5 26 3c e0 c4 22 3d f3 1d e1 bb
       -0.0008789077 0.010190434 0.039738536 -0.0068700253
0001b0 01 33 c3 3d 1d 8e 25 3b 89 ba 3b 3c f0 1c 14 3c
       0.095312126 0.0025261708 0.011458048 0.009040102
0001c0 59 c8 fa ba 9c 67 b2 ba 22 c9 87 bc 26 a9 d4 3b
       -0.0019133195 -0.00136112 -0.0165754 0.0064898906
0001d0 7f 4f 62 3c 86 e2 0c 3a 4a 14 b7 bb be 3c 87 3b
       0.013812899 0.0005374331 -0.0055871354 0.004127114
0001e0 80 19 49 3d 04 94 70 bc 47 45 96 bc 3d c3 05 bc
       0.049096584 -0.014683727 -0.01834358 -0.008164224
0001f0 ff 62 9e 3b ff c1 1e 3b 82 d2 87 3b fb 80 5b bb
       0.0048335786 0.0024224517 0.0041449675 -0.0033493626
000200 38 10 7d 3f 98 47 c1 bc 08 7a ef bc b8 48 80 3c
       0.9885287 -0.023593709 -0.029232994 0.015659675
000210 97 9c e8 3c db 0c af bb 8c 72 52 3c b9 eb bb ba
       0.02839498 -0.0053421087 0.012844693 -0.0014337219
000220 c2 13 1e 3d 2d b3 bf bb 59 e5 9a 3c b1 53 c8 bb
       0.03859306 -0.005850217 0.01890819 -0.0061134924
000230 58 fd 5d bd e0 08 da 3c 7b 21 b4 3c e8 f3 96 bc
       -0.054196686 0.02661556 0.021988621 -0.01842685
000240 fb 72 de 3a 9d 11 81 bb c9 6a 41 3d bd 09 0c bd
       0.0016971523 -0.0039388672 0.04722098 -0.034188975
000250 85 87 f4 bb 2a 36 9b 3c 61 3f ae bb aa a0 b9 bb
       -0.0074624442 0.018946726 -0.005317614 -0.0056649046
000260 9c a5 31 3d 0b 9d b3 bb ec dd cb 3c 9b 18 22 bc
       0.043370828 -0.0054813675 0.024886094 -0.009893562
000270 e2 5c 81 bc 15 14 21 bc e2 8a e6 bb 4f a5 9a 3c
       -0.01579136 -0.009831448 -0.007035599 0.018877653
000280 9c 5b 6f 3c 20 1a c4 3b 1c 7a b1 3a 9c 0c 72 bc
       0.014609244 0.0059845597 0.001354042 -0.014773514
000290 99 53 0f bc 9d a5 ae 3b cf 77 a2 3b 4c 8d 13 3b
       -0.008747959 0.0053298012 0.00495813 0.002251464
0002a0 49 cb 7d bc 73 da 3f 3b 16 f4 99 3c 62 c9 98 3b
       -0.0154903615 0.0029274493 0.018793147 0.0046626786
0002b0 19 a0 1a 3d f1 09 10 3c 38 c7 ce bc 99 89 16 3c
       0.037750337 0.008791433 -0.02524148 0.009188079
0002c0 62 0e 39 bb a1 03 0f 3c 83 72 33 bc 3e 72 6b 3c
       -0.0028237333 0.008728893 -0.010952595 0.014370499
0002d0 e6 5b 81 be 0b fd 84 bd fc f9 d6 3b ed fa 1e 3b
       -0.25265425 -0.064935766 0.006560562 0.002425845
0002e0 c0 c5 3e bd 13 bb 76 bc d1 0f 52 bc fe ec 57 bc
       -0.046575308 -0.01505925 -0.012821154 -0.013179062
0002f0 54 6a b2 3c b5 0f 05 3b 0d 7c c7 3a 11 b8 24 bc
       0.021779217 0.0020303552 0.0015219465 -0.0100536505
000300 2d 52 13 bd 8c c5 3c 3d 72 2e 32 bd 47 1b ef 3b
       -0.03596704 0.046086833 -0.043501325 0.007296953
000310 74 75 50 bb 24 38 75 bb ba db 10 bc 35 da 80 3a
       -0.0031808289 -0.0037417496 -0.008841449 0.0009830656
000320 c8 02 4f bd d7 e3 81 bb 45 55 c1 bb dc 57 59 3b
       -0.05053976 -0.003963928 -0.0059000575 0.003316394
000330 c6 9e 7c bd be a6 07 bc 18 04 0f bc 90 ef f4 b9
       -0.061674856 -0.0082795005 -0.008729003 -0.00046717795
000340 eb e6 b3 3b e2 e3 43 3a d8 91 14 3c 5e 40 20 3c
       0.005490174 0.0007472617 0.009067975 0.009780971
000350 15 41 75 3c df 49 48 3c c8 ac 0b bc 73 40 05 bb
       0.01496913 0.0122246435 -0.008525081 -0.0020332604
000360 ee 10 be 3b 07 45 df bb 1f 18 5c 3c c7 b9 85 3b
       0.005800358 -0.0068136486 0.013433485 0.0040809843
000370 b4 22 d1 bb 80 5f 49 3b 1e 3f 86 3a 76 b3 70 3b
       -0.0063823108 0.0030727088 0.0010242199 0.003672806
000380 94 8b a2 bb da 5c 63 bb 8f f8 23 3d 8b 50 f9 b9
       -0.0049604867 -0.0034692795 0.040031966 -0.0004755299
000390 29 58 6a 3c 30 09 61 bb 82 33 9a 3a 5e 65 34 3b
       0.014303246 -0.0034337752 0.0011764618 0.002752624
0003a0 92 2f 92 3c 7e ae 4f bc dd be 9f bc b9 41 04 3d
       0.017844949 -0.0126758795 -0.01950019 0.03228924
0003b0 85 1a f2 3c 98 f3 f8 bc 20 54 7e bc 44 58 e8 ba
       0.029553661 -0.030389592 -0.015522987 -0.00177265
0003c0 8e 39 53 bb 83 ef 79 3b 9c a0 95 bc d7 95 ad 3a
       -0.003223035 0.0038137145 -0.018265061 0.0013243508
0003d0 a4 87 28 3c 78 5b 26 bc 7b 5e 1e 3c da 2d a7 ba
       0.0102862455 -0.010153644 0.009666081 -0.0012754754
0003e0 d8 d1 c8 3c 6c 29 9f 3c 38 34 14 bc 65 b4 25 3c
       0.024514124 0.019428931 -0.009045653 0.01011381
0003f0 90 94 c3 b9 80 11 e6 3b 64 16 fe bb 3e 0e 83 bc
       -0.00037303986 0.007021129 -0.007754134 -0.015998002

model/dynamic_conv2d/DynamicConv2D f4 [32, 3, 3, 3]
000000 30 d2 04 bd de 81 50 3c be c6 21 3d 48 e0 82 3d
       -0.032427013 0.012726275 0.039496176 0.063904345
000010 28 a6 e1 bc 49 6d b6 bd b0 57 1a bd 5b 09 49 3b
       -0.02754505 -0.08907563 -0.03768128 0.0030675742
000020 90 d0 4f 3d 5e 43 95 bd 6e 02 60 3d b8 32 a9 bd
       0.05073601 -0.0728824 0.054689817 -0.08261627
000030 01 30 80 3f 39 d5 92 3c 89 8d e0 3d f4 ac 3a bd
       1.001465 0.017923938 0.10964496 -0.045575097
000040 41 45 cb 3a b0 2b 3f bd 52 e8 94 3d dd 85 9e bd
       0.001550831 -0.046672523 0.07270874 -0.07740376
000050 94 db a5 3d a7 96 4c bd e6 56 82 3c fa 3e a6 bd
       0.08098522 -0.04994836 0.015910577 -0.081174806
000060 cf 4f 33 3d 7b f6 ec bc 35 bc 34 3d 80 d7 1b bd
       0.043777283 -0.028926125 0.0441248 -0.038047314
000070 04 fa 75 bd 54 ad 18 3d 10 0a 9c 3d e2 a4 75 3d
       -0.060052887 0.037274674 0.07619107 0.059971698
000080 01 71 70 bd 38 52 b3 bc 21 f7 39 bd b3 a0 10 3d
       -0.05870152 -0.02188979 -0.045401696 0.035309505
000090 ea a3 7f 3d 9a a5 da bd ec 30 9d 3d db 64 04 3d
       0.06241218 -0.10676117 0.07675347 0.032322746
0000a0 8e 50 74 3f 02 a6 a5 bd 84 03 a3 bd fe 23 20 3d
       0.95435417 -0.08088304 -0.07959655 0.039096825
0000b0 98 c7 77 bd 64 35 3a 3d 19 7b f4 3c 66 bf f1 bc
       -0.06049308 0.045461074 0.029843854 -0.029510211
0000c0 bb 9b d2 bd bc ac 91 3d ea 76 c6 bd 0b 38 21 3c
       -0.102836095 0.071130246 -0.0969065 0.009840022
0000d0 6f 79 a3 3c 33 2b 6b 3d 0a c2 78 bd e2 45 20 bd
       0.019955365 0.057414245 -0.060731925 -0.039129145
0000e0 0f e4 d7 3d 3f ee be 3d 65 20 39 bd cf f2 c5 bd
       0.105415456 0.093227856 -0.04519691 -0.09665453
0000f0 ba 53 4f bd fc fb f7 3d 82 8e 21 bd ae 99 11 3e
       -0.050616957 0.12108609 -0.039442547 0.1421878
000100 aa c3 6d bd 3b 3a ba bd 00 dd db bc ce 85 06 3a
       -0.058047928 -0.09093138 -0.02683878 0.0005131633
000110 88 b0 80 3f 60 cc 55 bd 4f 86 05 bd 0c 0c e9 bc
       1.0053873 -0.05219686 -0.03259879 -0.028448127
000120 c4 fc 66 bd 60 42 a9 3d c4 b4 90 bb 35 38 2b bc
       -0.0563934 0.08264613 -0.00441608 -0.0104504125
000130 92 0c 99 bd f6 45 a2 3d a8 41 ad 3c aa 2b ab 3d
       -0.07473101 0.079235 0.021149471 0.08357938
000140 76 79 5d bd de 9d 8f bc 4a 91 11 3c ce b6 69 bc
       -0.054070912 -0.017531332 0.008884737 -0.014264775
000150 59 65 7e 3c 7a 9b 80 3c d2 6b 9a 3b 50 f0 7d bb
       0.015527093 0.015699137 0.00471256 -0.0038747974
000160 51 7b 83 3b c2 aa 01 bc 7d b6 58 3d e4 29 db 3c
       0.004012503 -0.007914247 0.05290841 0.026753373
000170 67 6d 24 3d a4 7a 2e be 31 b4 9c be 6c 59 29 be
       0.040143397 -0.17038971 -0.30606225 -0.16538018
000180 3f 20 85 3c 1b 83 6d 3d ad f8 a7 3c 48 32 e7 bc
       0.016250728 0.05798636 0.02050432 -0.028222218
000190 59 bb a1 3c d6 4c 83 bb 71 ee b3 3d 68 04 fe 3d
       0.019742655 -0.0040069623 0.087857135 0.12403184
0001a0 73 83 a2 3d e3 a8 a8 3b de 7a 71 3b 17 e3 34 3b
       0.07935228 0.005147086 0.0036846916 0.0027601176
0001b0 55 11 29 3c 43 41 91 bc 96 c2 67 3b f9 73 71 bd
       0.010319074 -0.017731315 0.0035363785 -0.05894849
0001c0 2f b6 d5 bc cb be b4 3d cc c2 7b 3c 9c e0 8f bc
       -0.026087848 0.08825453 0.015366267 -0.017563157
0001d0 bc b5 49 3a a3 20 f6 bd 63 f9 01 bd 61 63 24 3e
       0.0007694622 -0.12017944 -0.031731974 0.16053535
0001e0 11 a1 ce 3e c4 57 c8 3e 2f fa 4c bf 4b 09 8c bd
       0.4035726 0.3912946 -0.8006925 -0.0683771
0001f0 66 cd 9e bc 6b c8 bd 3d fd 24 cf 3b 57 9a 19 3c
       -0.019385051 0.09266742 0.006321548 0.009375176
000200 63 5f 85 bc 73 52 f3 bd b9 ee 92 bd 86 70 44 3e
       -0.016280835 -0.1188096 -0.07174439 0.1918355
000210 04 a4 5c 3c a8 03 88 bc 75 70 a1 3a 76 57 10 3e
       0.013466839 -0.016603306 0.001231684 0.14095864
000220 c7 24 64 3e 6a 49 13 3e 33 e8 0d be 92 0b 88 be
       0.22279654 0.14383474 -0.13858108 -0.26571327
000230 66 2e 04 be 8a d9 1f 3c 2f cb 02 3d e8 cc a8 bc
       -0.12908325 0.009756455 0.031932052 -0.02060552
000240 32 db 4f be f4 aa 86 be 7e 8f 20 be d9 40 97 3d
       -0.2029846 -0.26302302 -0.15679738 0.073854156
000250 19 5d 1b 3d 71 ba 66 bd a8 ae 08 3e c5 1a 65 3e
       0.03793058 -0.056330148 0.13347876 0.22373493
000260 8a 8c 54 3e 4d 3a 58 3d 4f ba 26 3d 18 f2 bf bb
       0.20756736 0.052789975 0.04070502 -0.0058577172
000270 01 38 cb 3d 3d a3 53 3e 44 04 48 3e c2 2c 2d be
       0.09922791 0.20667739 0.19532877 -0.16911605
000280 dd f3 6e be fb df 37 be ae 73 25 bc 38 ba f2 3b
       -0.23335214 -0.17956536 -0.010098381 0.007407453
000290 a3 54 00 bd 3c 44 26 3e 7e 18 6d 3e e0 e1 f0 3d
       -0.031330716 0.16236967 0.23153874 0.11761832
0002a0 08 63 22 be 16 b4 5c be 4f 83 d0 bd 0e 78 1f be
       -0.1585809 -0.21553072 -0.10181295 -0.15573141
0002b0 ce 03 38 be 8e 70 98 bd 68 af b7 3b d5 ed 4b bd
       -0.17970201 -0.07443343 0.005605627 -0.04978736
0002c0 90 cd 2e bc 1b fd 24 3e 34 a0 5f 3e fe 23 cf 3d
       -0.010669127 0.16112177 0.21838456 0.10114287
0002d0 77 c4 1f 3e b1 b8 22 3e ca 88 ea 3d bf 0a 2b be
       0.15602289 0.15890767 0.11451872 -0.16703318
0002e0 15 97 2c be 37 dd f5 bd 04 64 e2 3b 81 cd d5 ba
       -0.16854508 -0.12005084 0.0069088954 -0.0016311855
0002f0 e7 3c 54 3b 00 b8 aa bd 9d 8c ec bd a1 37 dc bd
       0.0032384933 -0.083358765 -0.11550257 -0.10752798
000300 6e 4a c9 3d 5b 64 03 3e 61 53 af 3d 0e 4d b0 3d
       0.098286495 0.12831251 0.08560825 0.08608447
000310 1c 2c 32 3e 5b 7f f4 3d 0b 11 16 bc 19 a5 5f bc
       0.17399639 0.11938354 -0.009159337 -0.013650202
000320 fd 97 0e 3d 12 e2 41 be 20 a4 c3 be b5 6f 5a be
       0.034812916 -0.18933895 -0.38211155 -0.21331675
000330 b8 0c c5 3d 95 fb 40 3e 5a e6 6a 3d ff 17 cc 3d
       0.096215665 0.18845971 0.057348587 0.099655144
000340 31 c8 26 3e 4f 77 c9 3d f8 89 cb bc 16 7c 12 3c
       0.16287304 0.098372094 -0.024846062 0.008940717
000350 da 05 57 3d a9 4d 90 bd 0b 62 1d be a3 1e 02 be
       0.052495815 -0.070460625 -0.15369432 -0.12707
000360 d4 59 1d bd 99 09 1f 3d 1e e4 88 bc 47 d4 3a 3d
       -0.038415745 0.038827512 -0.016710337 0.0456126
000370 e5 4b 84 3d a5 f4 35 bd 7f 85 15 bd 11 5a 63 bd
       0.06459788 -0.044422764 -0.036504265 -0.055505816
000380 dc c6 bd 3c 4b 81 94 3d 18 cb 52 3d 42 f6 41 bd
       0.023166113 0.07251223 0.051463217 -0.04735399
000390 d8 85 03 bd f1 fb 7e be fb a4 96 3e 0f 1c 81 3d
       -0.032110065 -0.24900796 0.29422745 0.0630418
0003a0 b3 d3 00 3e 5c b8 af bc 14 04 43 3c 8c 2c d2 bc
       0.12580757 -0.021450214 0.011902828 -0.025656007
0003b0 dc 3d 03 bd 07 e0 0d 3c 4d 97 61 3d 5e b7 19 be
       -0.032041416 0.008659369 0.055075932 -0.15011355
0003c0 2b 7a 05 bd d6 9b 4b bc 64 78 95 bb 8f a3 6c 3c
       -0.03258721 -0.012427291 -0.004561471 0.014443292
0003d0 4a f4 f1 3c cf ee 99 3c ab 2e 7f 3d b0 17 32 3d
       0.029535431 0.01879063 0.062300365 0.04347962
0003e0 c3 0e 31 3d fa ce 8b bc b5 67 3f 3c 3e 52 a9 bc
       0.04322697 -0.017066468 0.0116824405 -0.020669099
0003f0 ff 24 80 3d 56 6d a1 3c de df 85 3d e5 3a d9 bd
       0.062570564 0.019705456 0.0653684 -0.10606936

model/tf.nn.relu/Relu;model/tf.math.add/Add;model/dynamic_conv2d/DynamicConv2D f4 [32]
000000 66 01 9f 3c af dd 89 3d 58 1d ec 3c d3 b2 ac 3d
       0.019409847 0.06731736 0.028822586 0.084325455
000010 db a4 d6 ba 19 2c f0 b5 86 67 89 39 c7 66 5d ba
       -0.0016376035 -1.7894228e-06 0.00026207807 -0.0008445796
000020 a9 3b 8d 3d f9 6f f6 bd 8d 5f 27 3c 30 e4 ce bc
       0.06896145 -0.12033076 0.010215652 -0.025255293
000030 d7 ce 74 3d d1 d4 33 3b e7 af 1a 3a f2 30 2c b9
       0.05976757 0.002744008 0.0005900845 -0.00016421432
000040 e0 d8 f8 ba e7 d5 f1 3c 9f f0 d6 3c 14 f3 42 b9
       -0.0018985532 0.029520942 0.026237784 -0.00018591835
000050 95 bd 1b 3c 98 bb 1d ba 56 5a 6f bd e5 59 af be
       0.009505649 -0.00060170284 -0.05843576 -0.34248272
000060 07 9e 33 be 34 81 36 bb cd cf d9 39 5b 64 aa 3a
       -0.17540751 -0.0027848007 0.0004154429 0.0012999879
000070 89 f6 b3 39 15 86 2b 3c 9e 9a 35 39 5b 5a ff 3b
       0.00034325224 0.010468979 0.00017319105 0.0077927536
